{
    "batch_size": 32,
    "img_height": 180,
    "img_width": 180,
    "class_names": [
        "daisy",
        "dandelion",
        "roses",
        "sunflowers",
        "tulips"
    ],
    "optimizer": "adam",
    "metrics": "accuracy",
    "summary": "Model: \"sequential_3\"\n_________________________________________________________________\n Layer (type)                Output Shape              Param #   \n=================================================================\n sequential_1 (Sequential)   (None, 180, 180, 3)       0         \n                                                                 \n rescaling_3 (Rescaling)     (None, 180, 180, 3)       0         \n                                                                 \n conv2d_6 (Conv2D)           (None, 180, 180, 16)      448       \n                                                                 \n max_pooling2d_6 (MaxPooling  (None, 90, 90, 16)       0         \n 2D)                                                             \n                                                                 \n conv2d_7 (Conv2D)           (None, 90, 90, 32)        4640      \n                                                                 \n max_pooling2d_7 (MaxPooling  (None, 45, 45, 32)       0         \n 2D)                                                             \n                                                                 \n conv2d_8 (Conv2D)           (None, 45, 45, 64)        18496     \n                                                                 \n max_pooling2d_8 (MaxPooling  (None, 22, 22, 64)       0         \n 2D)                                                             \n                                                                 \n dropout_1 (Dropout)         (None, 22, 22, 64)        0         \n                                                                 \n flatten_2 (Flatten)         (None, 30976)             0         \n                                                                 \n dense_3 (Dense)             (None, 128)               3965056   \n                                                                 \n outputs (Dense)             (None, 5)                 645       \n                                                                 \n=================================================================\nTotal params: 3,989,285\nTrainable params: 3,989,285\nNon-trainable params: 0\n_________________________________________________________________\n",
    "epochs": 15,
    "train_summary": "Epoch 1/15\n\r 1/92 [..............................] - ETA: 3s - los
…
