…
            "9444202147_405290415b_n.jpg": "045d127c7f98d6eef14bfbb47a872e1cad00085fcf883ff2f634d47b57274fd0",
            "17199496791_3caaf5e278_m.jpg": "5cf8acbfa1ddca7f0d3dadaeca08b7f97b7e59a6f69cceb6a282d2592c426cee",
            "14067456066_87e15792d0.jpg": "5f7976409a22d45791c86b00fd8e8377d888dcb2b94b6c3af48e0d21ea837e69"
        }
    },
    "summary": "Model: \"sequential_2\"\n_________________________________________________________________\n Layer (type)                Output Shape              Param #   \n=================================================================\n sequential_1 (Sequential)   (None, 180, 180, 3)       0         \n                                                                 \n rescaling_2 (Rescaling)     (None, 180, 180, 3)       0         \n                                                                 \n conv2d_3 (Conv2D)           (None, 180, 180, 16)      448       \n                                                                 \n max_pooling2d_3 (MaxPooling  (None, 90, 90, 16)       0         \n 2D)                                                             \n                                                                 \n conv2d_4 (Conv2D)           (None, 90, 90, 32)        4640      \n                                                                 \n max_pooling2d_4 (MaxPooling  (None, 45, 45, 32)       0         \n 2D)                                                             \n                                                                 \n conv2d_5 (Conv2D)           (None, 45, 45, 64)        18496     \n                                                                 \n max_pooling2d_5 (MaxPooling  (None, 22, 22, 64)       0         \n 2D)                                                             \n                                                                 \n dropout (Dropout)           (None, 22, 22, 64)        0         \n                                                                 \n flatten_1 (Flatten)         (None, 30976)             0         \n                                                                 \n dense_2 (Dense)             (None, 128)               3965056   \n                                                                 \n outputs (Dense)             (None, 5)                 645       \n                                                                 \n=================================================================\nTotal params: 3,989,285\nTrainable params: 3,989,285\nNon-trainable params: 0\n_________________________________________________________________\n",
    "epochs": 15,
    "optimizer": "adam",
    "metrics": "accuracy",
    "train_summary": "Epoch 1/15\n\r 1
…
